assets/kidney_model/final_kidney_model.tflite (tflite, 6516 bytes, 4 tensors)

sequential_1/dense_3/BiasAdd/ReadVariableOp f4 [24]
0.14847426 -0.12975723 0.10505037 -0.12146225 -0.13140127 -0.13994317 -0.1354923 -0.13249162
-0.13557865 -0.14506586 -0.13497196 -0.14044198 -0.12934636 -0.12659594 -0.1246156 -0.13750061
-0.1318904 -0.1270705 -0.13972303 -0.1370869 -0.12698899 -0.12978894 -0.1379373 -0.1448433
00000000: a309 183e 14df 04be a624 d73d 33c1 f8bd
00000010: 0e8e 06be 434d 0fbe 7ebe 0abe e2ab 07be
00000020: 21d5 0abe 258c 14be 1736 0abe 06d0 0fbe
00000030: 5f73 04be 5ea2 01be 7736 ffbd f6cc 0cbe
00000040: 470e 07be c51e 02be 8e13 0fbe 8260 0cbe
00000050: 6709 02be 64e7 04be 703f 0dbe cd51 14be

sequential_1/dense_2/BiasAdd/ReadVariableOp f4 [24]
-0.014863124 0.22502708 0.13355222 0.07824763 -0.09731429 -0.02175876 0.15772285 0.1411826
0.16737467 -0.10829014 0.19264205 0.07497297 0.20264678 -0.10353756 0.13251117 -0.0001723409
0.21318248 0.1854392 0.1469783 0.15001018 -0.040520743 -0.10524993 0.19994286 0.17884907
00000000: 7684 73bc 806d 663e eac1 083e 4b40 a03d
00000010: b74c c7bd 6d3f b2bc 1982 213e 2c92 103e
00000020: 4464 2b3e 39c7 ddbd f543 453e 6e8b 993d
00000030: a382 4f3e 800b d4bd 02b1 073e 68b6 34b9
00000040: 824c 5a3e c6e3 3d3e 7b81 163e 459c 193e
00000050: 14f9 25bd 468d d7bd d2bd 4c3e 3624 373e

sequential_1/dense_2/MatMul f4 [24, 24]
-0.24183398 -0.0028342556 -0.117795445 0.3260554 0.13947147 -0.18504253 0.1278878 -0.00022645635
-0.30579233 -0.31247756 0.2918652 -0.20492718 0.1873864 -0.17326643 -0.27189693 -0.23163189
-0.23140594 0.25291198 0.048811343 0.034217447 0.26859123 -0.094022624 -0.059844967 -0.053731
-0.20678437 0.30929843 -0.47599757 -0.03928802 0.10013936 0.23087303 -0.17421897 -0.43813682
0.21325786 -0.43922007 0.3310062 0.08171657 -0.44569054 -0.23550253 -0.046070628 -0.47374603
0.14653513 0.35037822 0.42711633 -0.31242573 -0.3663951 -0.30673087 0.32806018 -0.35581836
-0.15307452 0.23548026 -0.34067518 0.19388753 0.0022873485 0.4262316 -0.09463619 -0.12285242
-0.20782557 0.24538144 -0.047151625 -0.27248728 -0.28985664 0.22739966 -0.39213836 -0.4503027
-0.41053706 -0.23664986 0.24792542 0.10096171 -0.09506933 0.09482823 0.15653278 0.0613183
0.15529542 0.27505487 -0.18487333 -0.25342655 0.2142671 0.39203808 0.020305723 -0.36751893
-0.12990981 -0.083601296 0.23672445 -0.033969253 -0.23039226 0.26582146 -0.3196437 -0.021645598
0.14637451 0.27691796 -0.16169567 -0.050886035 -0.069098175 -0.1742439 -0.06438145 0.18461718
0.18752089 0.1847444 0.025497137 0.05042229 0.22340196 -0.24782124 0.040094886 0.18365565
-0.20324601 -0.20156045 -0.37171257 0.18782051 0.10279805 0.1382878 0.12742668 0.098146364
0.1445761 0.15381193 0.078439996 0.19073059 -0.037255514 -0.21804254 -0.1025063 0.108958654
0.3269671 0.22082633 -0.01539578 -0.008205598 0.24708487 -0.09651125 -0.11344233 -0.2983839
0.12199902 0.24846172 0.13442075 0.24894106 -0.23153022 -0.27236426 -0.014474749 0.06331536
-0.2985673 -0.02451124 0.21183872 -0.38837114 0.20177275 0.0060724635 0.2999755 -0.41632286
-0.2450405 -0.0235601 0.34413844 -0.10174126 -0.1954165 -0.025675783 0.36767614 -0.06843902
-0.5132408 -0.44055903 0.12264267 0.075175956 0.17660259 -0.44743592 0.19678666 0.055565376
-0.37480858 0.4042627 -0.26988727 0.15884519 -0.4001443 0.17199713 -0.3262123 0.18017155
-0.07690836 -0.15685698 0.40745404 0.20093884 0.16097356 -0.36510718 -0.041831788 0.051790167
-0.010190116 -0.044667587 -0.1933178 -0.48034418 0.01809079 0.022885906 0.47751147 0.001502568
0.27871335 -0.3479647 -0.21945564 -0.22976963 0.20027107 -0.27830428 -0.38386914 -0.39190966
-0.3827513 0.35136768 0.0009044326 0.01799251 -0.1552654 -0.02953365 0.06636984 -0.38387817
-0.37061694 -0.08491745 -0.029633023 -0.15447325 -0.01956528 -0.49128336 0.108356774 0.16712965
0.14002071 0.3842225 -0.3185632 -0.29927307 -0.39507353 -0.13108464 -0.37382394 -0.180809
-0.22423746 0.24075936 0.068437904 -0.09076594 -0.027333347 -0.06560199 -0.047868326 0.17637989
-0.0076641757 0.2000815 0.027425313 -0.063312896 0.13353579 -0.20978676 0.035450947 -0.17663293
0.20786674 -0.17379637 0.24629165 -0.12589729 -0.068138674 -0.016052544 -0.15098368 -0.1801278
0.33419392 -0.109991506 -0.10073052 0.2675713 0.3501345 0.2817928 -0.23618183 0.29234895
0.29120588 0.46110225 -0.100423716 -0.2114614 0.053072087 -0.36711827 -0.061843213 -0.25988865
00000000: 54a3 77be ebbe 39bb bd3e f1bd bcf0 a63e
00000010: 9cd1 0e3e ca7b 3dbe 05f5 023e ea74 6db9
00000020: d090 9cbe 0ffd 9fbe 5b6f 953e 6ed8 51be
00000030: 38e2 3f3e c16c 31be 1336 8bbe e930 6dbe
00000040: aef5 6cbe ae7d 813e 67ee 473d 9827 0c3d
00000050: ca84 893e ef8e c0bd ff1f 75bd 0915 5cbd
00000060: 48bf 53be 5d5c 9e3e f4b5 f3be 7aec 20bd
00000070: dd15 cd3d fb69 6c3e 7566 32be 7853 e0be
00000080: 4560 5a3e 74e1 e0be a579 a93e 045b a73d
00000090: 8d31 e4be 9327 71be 8eb4 3cbd d78e f2be
000000a0: 4e0d 163e c664 b33e feae da3e 44f6 9fbe
000000b0: 2398 bbbe d40b 9dbe 81f7 a73e d32d b6be
000000c0: 91bf 1cbe bd21 713e fa6c aebe 748a 463e
000000d0: 57e7 153b 073b da3e 9ed0 c1bd 0d9a fbbd
000000e0: 3ad0 54be 4645 7b3e 1022 41bd 7483 8bbe
000000f0: 1768 94be 75db 683e 5cc6 c8be 138e e6be
00000100: ea31 d2be 5754 72be 29e0 7d3e 03c5 ce3d
00000110: b5b3 c2bd 4e35 c23d 214a 203e e628 7b3d
00000120: c305 1f3e fed3 8c3e 6f4f 3dbe 20c1 81be
00000130: d668 5b3e 37b9 c83e 3058 a63c 712b bcbe
00000140: 1407 05be 2837 abbd e567 723e 5823 0bbd
00000150: f3eb 6bbe c019 883e 57a8 a3be 1c52 b1bc
00000160: 33e3 153e 31c8 8d3e 8d93 25be e06d 50bd
00000170: 5883 8dbd fe6c 32be 6cda 83bd 490c 3d3e
00000180: 7a05 403e a32d 3d3e 5fdf d03c 9a87 4e3d
00000190: 7cc3 643e dac4 7dbe 893a 243d 3a10 3c3e
000001a0: b91f 50be dd65 4ebe 1c51 bebe 0554 403e
000001b0: c987 d23d 519b 0d3e 247c 023e f600 c93d
000001c0: c20b 143e e080 1d3e 26a5 a03d e14e 433e
000001d0: 3d99 18bd 8b46 5fbe d3ee d1bd b725 df3d
000001e0: 3b68 a73e 4c20 623e 953e 7cbc c670 06bc
000001f0: d103 7d3e b1a7 c5bd 7454 e8bd c6c5 98be
00000200: 9fda f93d c06c 7e3e 98a5 093e 68ea 7e3e
00000210: 4216 6dbe 5473 8bbe 7f27 6dbc 7cab 813d
00000220: d0dd 98be cccb c8bc 40ec 583e 95d8 c6be
00000230: 849d 4e3e 84fb c63b 6496 993e 4528 d5be
00000240: e6eb 7abe 1c01 c1bc ea32 b03e b95d d0bd
00000250: 431b 48be 0556 d2bc 0c40 bc3e c229 8cbd
00000260: c063 03bf f490 e1be 152c fb3d daf5 993d
00000270: 4fd7 343e 5216 e5be 7182 493e 8598 633d
00000280: e9e6 bfbe 85fb ce3e aa2e 8abe 50a8 223e
00000290: b7df ccbe 0420 303e 4c05 a7be e47e 383e
000002a0: 2182 9dbd 1e9f 20be d19d d03e e9c2 4d3e
000002b0: 41d6 243e 54ef babe cf57 2bbd ed21 543d
000002c0: 72f4 26bc 5cf5 36bd 1af5 45be acef f5be
000002d0: 2333 943c 397b bb3c 627c f43e d1f1 c43a
000002e0: 84b3 8e3e 6e28 b2be fbb8 60be bb48 6bbe
000002f0: dc13 4d3e e67d 8ebe 7f8a c4be 62a8 c8be
00000300: faf7 c3be 77e6 b33e 7217 6d3a 0765 933c
00000310: e5fd 1ebe 8ef0 f1bc e9ec 873d ae8b c4be
00000320: 81c1 bdbe 33e9 adbd f4c0 f2bc 3c2e 1ebe
00000330: 5e47 a0bc 7e89 fbbe 28ea dd3d 0924 2b3e
00000340: 9761 0f3e d0b8 c43e b71a a3be 523a 99be
00000350: 1447 cabe 0d3b 06be da65 bfbe ff25 39be
00000360: 819e 65be 9f89 763e 2c29 8c3d 7ee3 b9bd
00000370: 2fea dfbc 565a 86bd 9411 44bd ee9c 343e
00000380: c423 fbbb 2ae2 4c3e 0dab e03c 31aa 81bd
00000390: 9bbd 083e 57d2 56be 0335 113d 43df 34be
000003a0: 05db 543e adf7 31be e133 7c3e 38eb 00be
000003b0: 4a8c 8bbd a080 83bc 779b 1abe 6c73 38be
000003c0: 771b ab3e 3a43 e1bd ce4b cebd 1bff 883e
000003d0: d444 b33e 2547 903e a6d9 71be c3ae 953e
000003e0: f018 953e 9815 ec3e f3aa cdbd 5689 58be
000003f0: 1e62 593d edf6 bbbe 4f4f 7dbd 2010 85be

sequential_1/dense_3/MatMul f4 [24, 24]
0.043749776 0.33342394 0.052910864 0.060237087 -0.21765952 0.04142241 0.25851917 -0.14729504
0.28491628 -0.24581166 0.29864347 -0.14884299 0.31247506 -0.19167511 0.2778676 -0.090008676
0.18111174 0.35703436 0.33487177 -0.01638772 0.22822651 -0.2075683 0.36969012 0.33675405
-0.39530128 -0.05667709 -0.34035468 -0.45249137 -0.23605177 -0.3121252 -0.12739928 -0.50145775
0.16727735 -0.386857 0.08417298 -0.51932454 -0.122375324 0.21405552 0.18245488 0.20518257
-0.17549828 0.15395823 -0.39507073 0.09605734 0.2379922 0.12507445 0.023289882 -0.185632
-0.14749865 -0.30337718 -0.28460854 -0.24827634 -0.14063375 -0.029374339 0.49745336 0.38067275
0.43706796 -0.20745537 0.029626926 0.46846983 -0.38491067 -0.42444584 -0.22093076 0.16156502
-0.48100406 0.20656298 -0.15972489 0.41027385 -0.21091782 0.16349453 -0.14151116 0.2303089
0.15123892 -0.37859717 -0.42167008 -0.22998857 -0.01751251 -0.3121605 -0.36425716 -0.10640325
-0.4410747 -0.41416308 -0.24189854 0.20066208 -0.40716633 -0.10465122 -0.07496746 -0.43057036
-0.2677653 -0.16097938 -0.02824821 -0.112031795 0.02229234 0.02325084 -0.17783998 -0.20783179
-0.42993867 0.06450501 -0.3944577 -0.244901 -0.15794626 -0.09766755 -0.10082446 -0.27534366
-0.15610816 0.2058438 -0.08638658 -0.054002788 -0.41580638 0.04276592 0.11119673 -0.45245895
-0.03747659 -0.4223186 -0.30278996 -0.2061162 -0.37941623 0.23562081 -0.33397868 -0.24557705
0.19163819 0.17476423 -0.15665618 -0.032222178 -0.01686197 0.061533924 -0.2798956 -0.06035367
-0.45131153 0.21493682 -0.39334583 0.05283897 0.016803762 -0.42901805 0.15993243 -0.26053572
-0.06307901 -0.048075236 0.16876821 -0.4360975 -0.44382703 -0.05900239 -0.17326929 -0.05130568
-0.2858055 -0.2573712 -0.30076513 0.08967716 -0.43920976 0.15323314 -0.041831385 -0.110705584
-0.4933546 0.020381678 -0.29890493 -0.46006584 -0.42953995 0.16024305 -0.15032266 0.17283054
-0.14515781 0.04780143 0.1723314 0.1770996 -0.30693394 -0.28877392 -0.4166161 0.18419541
-0.033737175 -0.16256258 0.118889555 -0.33766162 -0.14253959 0.09608103 -0.14734593 0.011452391
-0.07931531 -0.03489822 -0.054983877 -0.35189313 -0.15786444 -0.06708423 -0.009137293 -0.43951172
-0.35261285 -0.15565486 -0.35320047 -0.2885466 0.17455508 -0.3530194 -0.21459143 -0.089472376
-0.13787228 0.036996227 -0.38492072 0.17165588 -0.2659339 -0.28594732 -0.01106265 0.013295657
-0.5008514 0.21019278 0.014906886 -0.15674165 -0.34477574 0.114506096 0.11699811 0.062473055
-0.20724465 0.071307 -0.31126285 -0.062428754 0.19040136 -0.45886767 0.06854762 -0.10231695
-0.34728578 -0.30645478 0.081517726 -0.5041649 -0.42515635 -0.23820445 -0.2119547 -0.112796806
0.0816047 0.12711506 -0.13496573 0.09561268 -0.034564584 -0.02941887 -0.059360888 -0.40795
0.07656585 -0.14448626 -0.34198955 -0.46353373 -0.39045686 -0.3410087 0.13863796 -0.08451322
-0.0764609 -0.2939801 -0.22229883 -0.10009393 -0.23767632 -0.007458941 -0.15947677 0.007881658
0.13673729 -0.34020433 -0.27370304 -0.50576967 0.024290053 0.15566011 -0.45468426 -0.37996745
00000000: f732 333d 8bb6 aa3e 10b9 583d 2abb 763d
00000010: 23e2 5ebe 8caa 293d a05c 843e 83d4 16be
00000020: 8ce0 913e 0db6 7bbe cce7 983e 4c6a 18be
00000030: bbfc 9f3e 7b46 44be a944 8e3e 7856 b8bd
00000040: 5b75 393e 35cd b63e 5074 ab3e 8a3f 86bc
00000050: 36b4 693e c98c 54be 0648 bd3e 076b ac3e
00000060: ee64 cabe 3c26 68bd f842 aebe f3ac e7be
00000070: 8eb7 71be e0ce 9fbe f574 02be 895f 00bf
00000080: c14a 2b3e 1f12 c6be e262 ac3d 74f2 04bf
00000090: ea9f fabd 5f31 5b3e 74d5 3a3e 611b 523e
000000a0: d2b5 33be 3aa7 1d3e b646 cabe b6b9 c43d
000000b0: 3ab4 733e 8413 003e 6cca be3c 5116 3ebe
000000c0: e309 17be 4154 9bbe 36b8 91be 273c 7ebe
000000d0: 4b02 10be 74a2 f0bc 35b2 fe3e 8ae7 c23e
000000e0: 5fc7 df3e 2e6f 54be 2bb4 f23c 47db ef3e
000000f0: 0313 c5be f750 d9be ac3b 62be 4d71 253e
00000100: 2a46 f6be 3f85 533e ec8e 23be 6a0f d23e
00000110: d7fa 57be 1c6b 273e 4de8 10be 19d6 6b3e
00000120: 60de 1a3e 7dd7 c1be 24e5 d7be 2082 6bbe
00000130: 6576 8fbc 80d3 9fbe ea7f babe f2e9 d9bd
00000140: 8bd4 e1be 2f0d d4be 40b4 77be 5c7a 4d3e
00000150: 1b78 d0be 6153 d6bd 8a88 99bd b873 dcbe
00000160: 8918 89be c7d7 24be ca68 e7bc ed70 e5bd
00000170: 6d9e b63c 8c78 be3c af1b 36be dbd1 54be
00000180: ec20 dcbe 341b 843d 5cf6 c9be 54c7 7abe
00000190: aabc 21be ed05 c8bd 0e7d cebd d8f9 8cbe
000001a0: d1da 1fbe b8c8 523e 72eb b0bd 0732 5dbd
000001b0: 93e4 d4be 512b 2f3d 1cbb e33d b3a8 e7be
000001c0: 0e81 19bd 253a d8be 4907 9bbe 2010 53be
000001d0: d842 c2be 9546 713e 41ff aabe 8d78 7bbe
000001e0: cd3c 443e 65f5 323e 7a6a 20be 67fb 03bd
000001f0: 1d22 8abc ff0a 7c3d 7a4e 8fbe 6935 77bd
00000200: 4e12 e7be 6618 5c3e a064 c9be ad6d 583d
00000210: 0ba8 893c 41a8 dbbe 54c5 233e f064 85be
00000220: 912f 81bd 8aea 44bd 93d1 2c3e 2c48 dfbe
00000230: 4c3d e3be 7dac 71bd 816d 31be e825 52bd
00000240: 1955 92be 28c6 83be e3fd 99be a9a8 b73d
00000250: 1ae0 e0be 26e9 1c3e 6357 2bbd 9cb9 e2bd
00000260: f998 fcbe 7af7 a63c 110a 99be c08d ebbe
00000270: a9ec dbbe c116 243e 2fee 19be 7dfa 303e
00000280: 40a4 14be 6fcb 433d a477 303e 9959 353e
00000290: 7226 9dbe 2dda 93be b54e d5be b99d 3c3e
000002a0: fe2f 0abd ce76 26be 5e7c f33d fce1 acbe
000002b0: e6f5 11be 22c6 c43d dae1 16be cfa2 3b3c
000002c0: 1170 a2bd 70f1 0ebd c636 61bd 562b b4be
000002d0: 37a7 21be 7563 89bd 96b4 15bc ae07 e1be
000002e0: ac89 b4be fd63 1fbe b1d6 b4be 61bc 93be
000002f0: 91be 323e f5be b4be dbbd 5bbe 4b3d b7bd
00000300: 642e 0dbe 5b89 173d 5414 c5be 8fc6 2f3e
00000310: 7d28 88be b067 92be 1e40 35bc 07d6 593c
00000320: cc37 00bf c73c 573e 033c 743c e280 20be
00000330: 7286 b0be 2c82 ea3d b59c ef3d bfe3 7f3d
00000340: f137 54be 6809 923d d85d 9fbe 4bb5 7fbd
00000350: 93f8 423e b4f0 eabe b262 8c3d 8d8b d1bd
00000360: 71cf b1be a4e7 9cbe c4f2 a63d f310 01bf
00000370: 18ae d9be deeb 73be a70a 59be 0302 e7bd
00000380: 5d20 a73d 732a 023e 7534 0abe 95d0 c33d
00000390: 9893 0dbd d8ff f0bc 6724 73bd d3de d0be
000003a0: 8ece 9c3d 35f4 13be 4119 afbe 4b54 edbe
000003b0: f6e9 c7be b198 aebe 1cf7 0d3e 4415 adbd
000003c0: 8897 9cbd 8f84 96be 4ea2 63be 0cfe ccbd
000003d0: 6c61 73be 226a f4bb e14d 23be 1222 013c
000003e0: dc04 0c3e 432f aebe ce22 8cbe 1f7a 01bf
000003f0: effb c63c 5d65 1f3e 60cc e8be 188b c2be
