assets/model (1).tflite (tflite, 6552 bytes, 4 tensors)

sequential_12/dense_13/BiasAdd/ReadVariableOp f4 [24]
00000000: a5dd ad3d f4a1 5bbc d3ee fc3c 89c3 0abd
00000010: 6f87 febc c1c6 bbbd cf88 57bd 813f 63ba
00000020: 843e 82bc 3040 82bc bdc3 febb b463 9dbd
00000030: 400a 7dbd 6ae8 36bd 19cf e4bc 31f5 3bbd
00000040: 1c7c 47bb 658b c8bd c676 00be fb66 bfbc
00000050: 9cc8 9fbd 5d76 63bc ccce 4dbb 302e 10bd
0.08489541 -0.013405312 0.030875599 -0.033877883 -0.03107044 -0.09168769 -0.052620705 -0.00086688256
-0.01589895 -0.015899748 -0.0077747987 -0.076850325 -0.061777353 -0.04465524 -0.027930783 -0.04588813
-0.0030438965 -0.097922124 -0.12545308 -0.023364535 -0.07801935 -0.0138832005 -0.0031403778 -0.035200298

sequential_12/dense_12/BiasAdd/ReadVariableOp f4 [24]
00000000: 0000 0000 0a7e acbd 2ae7 933d 2190 ddbd
00000010: c1f9 7c3b bbdc 71bc afcb 043d e17c 6c3d
00000020: 0000 0000 edfc bbbc b872 dabc 0000 0000
00000030: e1c4 513b 8eb6 9dbd 559d 82bd 0871 9dbd
00000040: 0000 0000 b2cb 3a3d a14d 9f3c 0000 0000
00000050: 57c5 383d 330b db3c 49bf ae3b 2ed2 39be
0.0 -0.084224775 0.072218254 -0.10818506 0.0038601013 -0.014762099 0.03242081 0.05773628
0.0 -0.022947753 -0.02666603 0.0 0.0032008218 -0.07700835 -0.06377665 -0.076875746
0.0 0.045604415 0.019446196 0.0 0.045110073 0.026738739 0.0053328616 -0.18146583

sequential_12/dense_12/MatMul f4 [24, 24]
00000000: 1efe 5e3e 1ae8 7ebe d80e b7bd 5df2 8f3e
00000010: 28e1 cc3d 62c4 6bbe a0ab f1bc c78e 7bbe
00000020: 706a 10be 617b 37be b941 96be 70e6 98bc
00000030: 961d 423e d0ee e9bc e49b a4bd 40ca 433c
00000040: 75c6 9dbe 6826 63be 000c 443a dcf7 993d
00000050: 0eb5 e1bd 5fa3 9b3e 8f81 95be ef78 8c3e
00000060: cf0a afbe 4d38 bcbd f87e 923d dd24 73be
00000070: 73d4 71be 53c2 833e bdf8 2b3d c2f7 a0be
00000080: 1249 aebe 3267 723d 2636 0c3e 0b9e b3be
00000090: febb 36be bd18 afbd 2be0 bcbe dc18 3fbe
000000a0: 4248 023d d5da 123e 2613 80be efde 8d3c
000000b0: 19b8 97be 7d43 bdbd 9f52 a9be b04a d6be
000000c0: 26b7 06be 4fed 153d 3192 b6bc feac 233e
000000d0: d82c e23e 9a7f a83e 9983 963e c85c 2c3e
000000e0: 1c13 2ebe 9320 8c3e 3fde fd3d f6c8 373e
000000f0: 5cca 7ebc a45b a9bd 00ee a3be 4809 8cbc
00000100: c0ed bc3c c743 59be 2c20 f33e 13a9 343d
00000110: 69f5 ac3e f927 8b3e 368d 25bc 8f59 c7bd
00000120: 37ba 8ebe e59f 8dbe e713 22be 29b0 ad3e
00000130: 2a64 d73a 74f8 963e 5354 0bbe 9591 e63e
00000140: eca4 d9bd 826a 9d3d 84f4 b0be 689b f0bd
00000150: 8ce4 5f3e c9f2 ebbd 65be 163d 027b f93d
00000160: a9c9 113e cc53 52bd 80d5 243f be02 95bb
00000170: a9e7 85be 616e 113f 78d9 dd3e 75a6 1b3e
00000180: d36b 4d3e 678c 843b 3d25 05be fdd2 d03e
00000190: dfc5 b53b cbae 9e3e 6f07 c0bd 5d06 e6bc
000001a0: 154c a1bd 0e8d 1e3e 01c5 c0bd d34a 363f
000001b0: aca5 eb3d 990e 88be 689a 0abf d697 1b3c
000001c0: 7b50 393d fcfd 84bc 0fae be3e 3b25 033d
000001d0: b5e6 4abe 9e79 2e3f 1b7d 473e 95a4 fc3e
000001e0: 0cc7 4c3e 2fcc 50bc 6bd4 a2be 85ae 213f
000001f0: 72dc eeb9 ba49 863e 25e2 58be 2342 93be
00000200: e47e 64be cca8 86be 8b9a 93be 457e 003f
00000210: 468d 0b3e ba93 933e dec1 123e c910 923e
00000220: c5ff 193e 462b 71be 87a3 a03b 57ab 983e
00000230: 2cc1 cf3d aa83 0e3e ce07 543d 0156 983d
00000240: b346 983e b455 86bc d21e 81be a268 2abf
00000250: 9c86 a53e a7c8 a4be 6601 02be 8e0e 39be
00000260: 69fd 793e e127 88be 87e4 1d3e e2da cd3c
00000270: 162f 5f3e 3722 41be aa3f cb3e 1391 cf3e
00000280: cc33 bd3d db10 3cbe c310 0fbf dd51 823e
00000290: 3986 883e ac12 00be 380f 833e 9096 01bf
000002a0: a54d 24bd a098 1b3e f514 eebd 37a5 eebd
000002b0: d292 e13e 38c2 983e 29fe a6be 2960 86be
000002c0: 7ca3 23be b648 883d 1a1d eb3c 370c 89be
000002d0: 518d e5bd c9d9 9f3e e794 eebd e03b 213d
000002e0: 0cc8 423b 50d7 983e f931 02ba e3ea 89bc
000002f0: cb0e c63e 280b 18be a81a 7a3e 1bcd 75be
00000300: 82b7 4b3e 153f 8cbe 4010 29bc f427 90bd
00000310: f0c6 a6bc 9803 89bd 7834 c3bd 0f2f 43be
00000320: 0ae6 12be 64cd 84bd 5ca3 b9bd cb90 91be
00000330: 7aec 4fbe dfcf 2cbe f06e f53d 617f 8fbe
00000340: c112 823e 9244 b0be 6edf 663e dd19 923e
00000350: 54f1 38be b8c7 2abd b215 85be 9167 8b3e
00000360: e176 703e 5845 7dbe 5a02 f2bc 94ce 653d
00000370: 6c1f 2e3d 68d1 9a3e 0e55 4dbe 4ffa 00be
00000380: 032d f0bd f1fd 2b3e fd49 93be 2844 e23e
00000390: 8747 91bd 4fbf 88bd 6866 c8be 743b 2c3e
000003a0: cd24 fb3d e9fa cbbd d726 13be 7d3e 2d3b
000003b0: ef17 a13e b3b5 3fbe 3039 5cbe c849 6b3d
000003c0: 97a0 8fbe 06d6 c13c ca1e 4dbe 8f0b 00bf
000003d0: 2995 2bbe 4046 0fbc adb0 4b3e e2eb a1be
000003e0: 8bad e23c 4aaa 223e e275 20bd cd07 94bb
000003f0: 1994 debc 9f65 983e 234f 983e 11fa 8d3e
0.21776626 -0.24893227 -0.08938378 0.28114596 0.10003883 -0.23024133 -0.029500782 -0.24566184
-0.14103103 -0.17918159 -0.29347017 -0.018664569 0.18956599 -0.028556257 -0.08037546 0.011950076
-0.30815473 -0.2218262 0.0007478595 0.075179785 -0.110208616 0.3039808 -0.29200408 0.27436015
-0.34187934 -0.09190426 0.071531236 -0.23744531 -0.23616199 0.25734195 0.041985262 -0.31439024
-0.34040123 0.059180446 0.13692531 -0.35081515 -0.17845151 -0.0854964 -0.36889777 -0.18661827
0.03180719 0.1434129 -0.2501461 0.017318217 -0.29632643 -0.09241388 -0.33070847 -0.41853857
-0.13155803 0.03660327 -0.022286506 0.1598396 0.44174838 0.32909852 0.29397276 0.16832268
-0.16999477 0.27368602 0.12395906 0.17947754 -0.015551176 -0.08269432 -0.32017517 -0.01709427
0.023062587 -0.21217261 0.47485483 0.044106554 0.33780983 0.27178934 -0.010104468 -0.09733879
-0.27876446 -0.27661052 -0.15827905 0.33923462 0.001643305 0.2948643 -0.13606386 0.45032945
-0.106271595 0.076863304 -0.3456155 -0.117483914 0.21864527 -0.11520917 0.036802668 0.12181665
0.14237083 -0.051349446 0.64388275 -0.004547446 -0.26153305 0.5680905 0.43329978 0.15200217
0.20060663 0.0040450576 -0.13002487 0.4078597 0.0055472697 0.3099273 -0.09376418 -0.028079206
-0.078758396 0.15483496 -0.094125755 0.7120792 0.11506209 -0.26573637 -0.54141855 0.00949665
0.045242768 -0.01623439 0.3724217 0.032017928 -0.1981457 0.68154323 0.19481318 0.49344316
0.19997805 -0.012743994 -0.31802687 0.6315692 -0.00045559142 0.26228124 -0.21180017 -0.28761396
-0.2231403 -0.26300657 -0.28828844 0.5019267 0.1362811 0.28823644 0.14331767 0.2852843
0.15038975 -0.23551664 0.0049023065 0.29818222 0.101442665 0.13917413 0.051765256 0.07438279
0.2974144 -0.016398288 -0.25218827 -0.66565907 0.3232926 -0.32184336 -0.12695846 -0.18071958
0.24413075 -0.26592925 0.15419208 0.025128786 0.21795306 -0.18860708 0.3969701 0.4054037
0.09238395 -0.18365805 -0.5588495 0.25453082 0.26664904 -0.12507123 0.25597548 -0.50620365
-0.04011311 0.1519494 -0.11625091 -0.11652606 0.44057328 0.29835677 -0.32615784 -0.2624524
-0.15980333 0.066544935 0.0287004 -0.26767132 -0.112085946 0.31220844 -0.116494946 0.039363742
0.0029721288 0.2985177 -0.0004966553 -0.016835636 0.3868316 -0.14848006 0.24424231 -0.24004023
0.19894221 -0.27391878 -0.010318816 -0.070388705 -0.020358533 -0.066901386 -0.09531492 -0.1906092
-0.14345565 -0.06484488 -0.090643615 -0.2843078 -0.20305052 -0.16876172 0.1198405 -0.2802687
0.25404933 -0.34427315 0.22546169 0.28535357 -0.1806081 -0.041694373 -0.25993115 0.27227452
0.23482849 -0.24733484 -0.029542137 0.05610521 0.042510435 0.3023789 -0.20051977 -0.12595485
-0.11727335 0.1679609 -0.28767386 0.44192624 -0.07093721 -0.06677114 -0.3914063 0.16819555
0.122628786 -0.09959967 -0.14370285 0.002643495 0.31463572 -0.18721657 -0.2150619 0.05744341
-0.28052208 0.023661625 -0.20031276 -0.50017637 -0.16756119 -0.008744776 0.19891615 -0.31625277
0.027670642 0.15885273 -0.03917492 -0.0045175315 -0.027170228 0.2976503 0.29747877 0.27729848

sequential_12/dense_13/MatMul f4 [24, 24]
00000000: 8c07 a5bd 462b 9dbe 82f1 823e 25c7 7b3b
00000010: 06ee 1b3e f4f3 7abd 7b67 a53e 316f 0d3e
00000020: 476d 96be 73e6 533e 5e22 6dbe 90ee 67be
00000030: 13a6 46be 56b6 80be 0e4c 9a38 1f9e 84be
00000040: 8682 10be 2668 c33e bfb7 5abd 9ed6 2b3e
00000050: e85a 903e e795 5cbe 6df8 0fbe bdec 25be
00000060: 1030 943d 430b 58be 9781 fd3d b451 9d3e
00000070: 6d81 ce3e 1a02 f2be d9f4 973e 7aa1 8abd
00000080: b8d1 503d 0c33 2cbc 32cd 83bd 5043 d6bc
00000090: b5fd 7bbe cbe9 9d3e 9f9f 36be 9b10 6c3d
000000a0: 62a2 6e3e 61cc 6e3e e726 b0be 8055 60bc
000000b0: 582a e53d 1f30 5dbe 529a 3abf c88a f03d
000000c0: d861 013d 1a2b b5bd ba68 193d f8e4 08be
000000d0: b6c6 64be 83ab 81be b560 b83e 43f4 bb3d
000000e0: 64a5 aebd cb66 c8bc 2024 f23d 14b3 ca3d
000000f0: 9c9f 74bd f598 813e 9b4f e23d 3ba8 743e
00000100: 871d b2be b6dd dabd 5486 dcbe 8e31 65be
00000110: 669f 623c bf93 a03e 163d 00be f160 f2bd
00000120: 7063 bebc e4c3 fabd 84d0 14be 35d5 28be
00000130: 775b 09be 8051 023e 2849 04ba a138 293e
00000140: 08fc 003e af53 543e a322 adbe 3a13 efbd
00000150: bfbf 873e 9fd1 133e 0933 2f3e 69bc 31be
00000160: 308b 7dbd a731 9bbe c72e 583d 8e11 05be
00000170: 9b5f 8e3e 9e86 073e 32d5 b3bb 502d 3c3c
00000180: 387a 083d f32e 83be 7e46 a93d 2f1f 8cbd
00000190: e8b0 5fbe 4c54 4dbe ceb9 0dbb e608 27be
000001a0: 3e14 70be 8d45 a7be c56d 343e 50e5 76be
000001b0: fb8f 223e d833 9abc f632 693d 0b75 39be
000001c0: dc83 95bd 63e2 98be abaf b7bc d1cc 9cbe
000001d0: 69ed 823e 1cb9 8f3d 1116 04be 343b 913e
000001e0: ff57 a9be 5dbb 1e3e 4613 3a3e 090b 753c
000001f0: e28a 95be c1a1 3ebe 18b3 153d 9706 efbe
00000200: 0d70 963e 9b0d e03d d5fa 50be 22d0 5c3e
00000210: 6612 a0be 76e9 263e 7081 543e 431d 413e
00000220: 5814 0ebd 12d5 8b3c 09f5 a6be 5085 74be
00000230: 968b 6abd d3c9 123e b594 95be f31b 5c3e
00000240: 69ed 18be eb59 f5bc bbbe 5a3e d3cd 92be
00000250: add2 b8be ba51 8e3e eb70 2bbe 5a6b 6abe
00000260: e8a7 1cbd 962d bbbe e070 69be c164 a33e
00000270: d94b 74be d961 803c bb70 203e 7ac9 813e
00000280: b0b2 77bd 3869 3a3e f2ad 1e3d 8a93 713e
00000290: 744c 493e 892f 93bd ec2c 993e 2814 6ebe
000002a0: 10a4 8cbd 433a 9b3e 70f4 1cbe e34a a03d
000002b0: 90cf c93d fa07 a7be 8b27 01be c91e 46be
000002c0: e401 833d a1b7 193e 8a87 97be 7659 2d3e
000002d0: 1932 93be 9a6d 0f3e e20c a73e a54f 9fbe
000002e0: f477 c03d 96ba 1dbc f340 833d adbe 813e
000002f0: cc29 373e 0f30 873d 6b54 75be 0218 8abe
00000300: daa6 14be fc7d ee3d 4dd9 d03c 42dd 18be
00000310: 741a cebd 67c8 803e 84ba 0dbd 0b95 b6be
00000320: 30f7 89bd 1556 2ebe 5251 253e b250 29be
00000330: 7b1f 29bd c893 903e 3a4f 223e 122d a3be
00000340: 76bc 4c3e dff7 833e 4ea7 9aba fb53 a63e
00000350: c520 663e cca0 a9be 50a0 9cbd 9cd1 c0bd
00000360: be91 86be 134c 77be 7038 a83e b4cf bf3d
00000370: 54df 5f3e 57e0 6c3e 07d2 9abd 0c6b 63be
00000380: b273 68be 145a 963d e9db 65be aea6 643e
00000390: 354c 123d 747b 943e 927c 153e b42b 3a3e
000003a0: 20a6 a93c da10 6dbe 9dda afbe 5468 d1bd
000003b0: fb5e 7fbe c64b 96be 110a a13e b6b8 63be
000003c0: 3ec7 0c3e 42cb 3a3d 2bfe 063e ca29 6d3e
000003d0: 9ae6 ee3c a726 b43e 2904 b3be de3b 7bbe
000003e0: 7e7e 4e3e 5ece 0a3e e607 843e fe46 313e
000003f0: aaad a7be 07ef 65bd ca49 b7bc 62ac dfbd
-0.0805808 -0.30697078 0.2557488 0.003841826 0.15227517 -0.061267808 0.32305512 0.13811947
-0.29380247 0.20693378 -0.23157641 -0.22649598 -0.1939929 -0.2513911 7.3574585e-05 -0.25901887
-0.1411229 0.38165396 -0.05339789 0.16781089 0.28194356 -0.21541558 -0.1405961 -0.1620359
0.0723573 -0.21098046 0.12378233 0.30726397 0.4033312 -0.47267228 0.2967899 -0.067690805
0.050981253 -0.010510217 -0.06435622 -0.026155144 -0.246085 0.30842432 -0.17834328 0.057633024
0.23304132 0.23320152 -0.3440468 -0.01369226 0.11189717 -0.21600388 -0.72891724 0.117452204
0.03158745 -0.088461116 0.03745339 -0.13368595 -0.22341427 -0.25326166 0.36011282 0.091774486
-0.085276395 -0.024463078 0.118232965 0.09897438 -0.059722528 0.2531201 0.1105034 0.238923
-0.34788153 -0.10686819 -0.43071234 -0.22382185 0.013831949 0.3136272 -0.12523302 -0.11834896
-0.023240775 -0.122443944 -0.14532667 -0.16487582 -0.13413797 0.12726402 -0.00050463015 0.16525508
0.12596142 0.20735048 -0.33815488 -0.11673589 0.26513478 0.14435433 0.17109312 -0.17357029
-0.061900318 -0.3031132 0.052778985 -0.12994978 0.27807316 0.13234946 -0.0054880613 0.011485413
0.033319682 -0.25621757 0.082653984 -0.06841885 -0.21844828 -0.20051688 -0.002162564 -0.16311988
-0.23445222 -0.3267025 0.17619999 -0.24110913 0.15875237 -0.01882355 0.056933366 -0.18111055
-0.07300541 -0.2986022 -0.022422632 -0.30625013 0.25571755 0.07017729 -0.12899043 0.2836548
-0.33074948 0.15501161 0.18171415 0.014956244 -0.29207522 -0.18616392 0.03654775 -0.46684715
0.29382363 0.10940095 -0.20408185 0.21563771 -0.31264037 0.16299996 0.20752501 0.18858819
-0.03468737 0.017069373 -0.32608822 -0.2387898 -0.057262026 0.14334802 -0.29215017 0.21495037
-0.14934315 -0.029950103 0.2136182 -0.28672656 -0.36098233 0.27796727 -0.16742294 -0.22892514
-0.038246065 -0.36558217 -0.22796965 0.31912807 -0.23857059 0.015671657 0.15668003 0.25349027
-0.060473144 0.182042 0.038740106 0.23591438 0.19658071 -0.07186801 0.29917085 -0.23249876
-0.0686723 0.30317888 -0.1532762 0.078267835 0.098540425 -0.32623273 -0.1261274 -0.19347681
0.06396845 0.15011455 -0.29595596 0.16928658 -0.2874916 0.14006653 0.32627016 -0.3111545
0.09397879 -0.009627005 0.064088725 0.25340787 0.17887038 0.06600963 -0.23957984 -0.26971442
-0.14516774 0.11645123 0.025494242 -0.14928153 -0.10063639 0.25152895 -0.034601703 -0.35660586
-0.067366004 -0.17025025 0.16144302 -0.16534689 -0.041289788 0.28237748 0.15850535 -0.31870323
0.19993767 0.25775048 -0.0011799128 0.32485947 0.22473438 -0.3313049 -0.07647765 -0.0941498
-0.26283067 -0.24150114 0.32855558 0.09365788 0.21862537 0.23132454 -0.07559591 -0.22208804
-0.22700384 0.073414 -0.2244717 0.22329208 0.035717208 0.29000437 0.14598301 0.18180734
0.020709097 -0.2315096 -0.34346476 -0.10224977 -0.24938576 -0.29354686 0.31452993 -0.2223843
0.1374788 0.045603998 0.13182895 0.23160473 0.029162694 0.3518574 -0.3496411 -0.24534556
0.2016544 0.13555285 0.25787276 0.17312238 -0.32749683 -0.056136157 -0.022374053 -0.10921551
