assets/cbc_model/final_cbc_model.tflite (tflite, 2408 bytes, 4 tensors)

sequential/dense_1/BiasAdd/ReadVariableOp f4 [9]
00000000: 18c0 8f3e 7da3 b63d 576b 3fbe 558c 86be
00000010: a30d 80be c29b 35be 2576 69be 6cf3 19be
00000020: 9273 9fbe
0.28076243 0.08917902 -0.1869329 -0.2627894 -0.25010404 -0.17735198 -0.22798975 -0.15034264
-0.3114286

sequential/dense/BiasAdd/ReadVariableOp f4 [9]
00000000: bfb9 96bd 0000 0000 16f0 cf3e 411d 0fbc
00000010: 5be4 c9bd 51a6 103f d310 d03e cff9 ca3e
00000020: 7e76 34bd
-0.07359647 0.0 0.4061286 -0.008735002 -0.098580085 0.5650378 0.40637836 0.39643714
-0.044058315

sequential/dense/MatMul f4 [9, 9]
00000000: 5b99 fb3d d8b3 08bf 6632 87bd c57c f33e
00000010: fe70 c8be fc2b f53d f1cb 45be 3cba 01bf
00000020: 7689 3e3e 83cd 8dbe ba36 6ebe 40fb dbbe
00000030: 2850 f73d e0aa 96be f407 8e3e 84f7 433e
00000040: bafd c8be d0f5 113f de73 743d 8086 e6bc
00000050: 9dab 353f 8bc4 6c3f 7167 85bd be3a e53c
00000060: f58a bf3e 4043 92bd f0d9 1e3f c948 9abe
00000070: d3c7 9cbb 5c4e a2be 245d 9c3e 99ae f5be
00000080: 4bd8 f33d f0bd 8b3f a5e3 0240 e932 9f3e
00000090: feca d9bd 6ca5 d53e 040c 01bf 6cc9 f5bc
000000a0: cb98 b63e c936 0b3e 1a35 13bd ee15 bebd
000000b0: cf81 acbe 4e79 ff3e 213d ce3d 5d27 3b3f
000000c0: 057e ec3e 516f 103f 8659 683f dcf7 293e
000000d0: e6c8 c8bf 5b5f 033f eae2 1d3e d05c 3d3f
000000e0: f0ee 343f 0ba1 b03e 7aff 9c3e d9a1 00be
000000f0: a634 dd3e b0a6 ec3e fac6 633f 9dbc c8bd
00000100: af70 cd3e 15ac 5a3f ea9d a03e d9cf 303f
00000110: 9c83 cd3e f7db a23e 0bf7 263f 9d20 553e
00000120: be29 debe f5ec 993d d8ff 543e 34da edbe
00000130: f9f0 c2bc 86e9 393e fa25 b9be 614c 293d
00000140: 0dd8 a53e
0.122851096 -0.5339942 -0.066014096 0.4755613 -0.39148706 0.1197128 -0.19316079 -0.50674796
0.18607125 -0.27695855 -0.23263064 -0.42965126 0.120758355 -0.29427242 0.27740443 0.19137388
-0.39256078 0.57015705 0.059680812 -0.028140306 0.70964986 0.924874 -0.065138705 0.027982112
0.37410703 -0.07141733 0.62051296 -0.30133656 -0.004784563 -0.31700408 0.3053981 -0.4798477
0.11906489 1.0917339 2.0451443 0.3109353 -0.10634421 0.4172777 -0.5040896 -0.030003272
0.35663447 0.13595118 -0.035939313 -0.092815265 -0.33692786 0.49897236 0.10070253 0.7310694
0.46189895 0.56419855 0.907616 0.16598457 -1.5686309 0.51317376 0.15418592 0.73969746
0.7067709 0.34497866 0.30663663 -0.1256174 0.4320423 0.46220922 0.8897549 -0.098016
0.40125033 0.85418826 0.3137048 0.6906715 0.40139472 0.31808445 0.6522071 0.20813222
-0.43391222 0.07515899 0.20800722 -0.46455538 -0.023796545 0.18155488 -0.36161786 0.041332606
0.32391396

sequential/dense_1/MatMul f4 [9, 9]
00000000: c8af ccbe 4a34 003f 3cc1 733f 4791 86bf
00000010: 1241 073d c881 983f 1794 b73e f7ca bb3e
00000020: e2af e93c 719b 4c3c 3425 4a3e b507 163f
00000030: 6e6a df3f 8a1e ce3d 3351 39bf 1a5b 013f
00000040: 75ec 243f 79e6 a7be ce57 fc3e 189e 83bd
00000050: 7c0e 27bf 0316 08bf c8b5 83be b6db 76be
00000060: 2342 18bf 3913 2cbf dfb0 933e b131 a5be
00000070: 76f3 ac3e 269c 37bd 0604 7fbf 0e98 b9be
00000080: 2122 fcbe 7e4f 923c 22de 24bf 3aac 7fbd
00000090: 1de2 29be 82a4 073f 21ab 92bd 5739 db3d
000000a0: 0afc 8e3e 2191 96bd 6fba 1cbf 9a68 78bf
000000b0: 55dd 7c3e 2a5a 8fbe f0df fc3e a96a f4be
000000c0: 2f19 ffbe aedc 70bd 6152 f4be c70e c2be
000000d0: 1719 6abf ab8a da3e 13ef d03e 0050 7039
000000e0: ee4d 3dbe 6519 38bf afc9 1a3e 652f 673d
000000f0: 9a0e 3abf f879 3bbf 626d ee3e a654 9c3e
00000100: ce7a a03e 3395 6dbf a67b e0be a6f8 e33e
00000110: 2357 3ebf 9f6c 45bf a314 61be e2b8 06bf
00000120: ac9c 9abe f0f0 093f 0ab5 95be 755c f3bd
00000130: 258d ae3e 58c9 03bf 9577 9fbd 4785 95be
00000140: 232b c83e
-0.3997786 0.50079787 0.9521673 -1.0513085 0.03302104 1.1914606 0.3585517 0.36678287
0.02852625 0.012488232 0.19740754 0.5860551 1.7454355 0.100644186 -0.72389525 0.50529635
0.64423305 -0.32793024 0.4928574 -0.06426638 -0.65256476 -0.5315859 -0.25724626 -0.2410725
-0.59475917 -0.6721683 0.2884588 -0.32264474 0.33779496 -0.04482665 -0.99615514 -0.3624882
-0.49244788 0.01786017 -0.6440145 -0.062420107 -0.16590162 0.52985394 -0.071615465 0.10704296
0.27926666 -0.073519 -0.61221975 -0.9703461 0.24693806 -0.27998477 0.493896 -0.47737625
-0.498239 -0.058804207 -0.477191 -0.379019 -0.91444534 0.4268392 0.408074 0.00022917986
-0.18486759 -0.7191375 0.15115999 0.056441683 -0.7267853 -0.73232985 0.46567827 0.30533332
0.31343693 -0.92805785 -0.43844336 0.4452564 -0.7435171 -0.7711887 -0.21980529 -0.5262586
-0.30197656 0.53883266 -0.29239684 -0.11882869 0.3409206 -0.514791 -0.0778648 -0.29203245
0.3909541
