assets/cbc_model/final_cbc_model_old.tflite (tflite, 2772 bytes, 4 tensors)

sequential_1/dense_3/BiasAdd/ReadVariableOp f4 [11]
00000000: 10e6 593e 54be b33d cb13 54be d7eb 14be
00000010: 3927 2cbe 14f6 15be b122 15be 4227 26be
00000020: 2c9b 3ebe 423d 5ebe 7fdc 2bbe
0.21279168 0.087765366 -0.20710675 -0.14543091 -0.16811837 -0.14644653 -0.14564015 -0.16225913
-0.18613881 -0.21703056 -0.16783331

sequential_1/dense_2/BiasAdd/ReadVariableOp f4 [11]
00000000: 0a95 35bd ca75 ad3e 8f79 9d3e ad3f d4bd
00000010: bd0d b73e b379 bfbd 61ac 833e d0ac c33e
00000020: c750 513e b866 65bc bb7f a63e
-0.044331588 0.33878928 0.30756804 -0.10363708 0.3575267 -0.09349384 0.25717452 0.38217783
0.2044097 -0.014001541 0.32519326

sequential_1/dense_2/MatMul f4 [11, 11]
00000000: 0198 7fbe 060f babe 1c95 6bbe 6650 a6be
00000010: d684 c43d 1bf4 773c f23b 483e 1291 093d
00000020: 3616 d5be 2286 13bc a398 3dbe 3261 ff3e
00000030: baca 323f 186c fe3e 0321 233e e1ff 2b3f
00000040: 2759 e0bd f7b5 023e 0648 eb3e 33bd 9d3e
00000050: bd62 853d 91a3 eb3e ebea 8b3e 22d3 63be
00000060: 5543 4d3d 8a96 803e 51b8 513e 4462 6ebd
00000070: ae43 bc3e 7e5f 2f3f 3e03 d33e 9eaf 6c3f
00000080: c26f 043f 5199 98bd c31b d9bd 4733 fe3d
00000090: 7262 e03d 0a9b d23d 8016 293e d861 75be
000000a0: a9f8 cbbe ffe1 a33e a359 ab3f dbc5 1abb
000000b0: 00c0 953e 0735 373f 1295 243f b48f 5c3d
000000c0: 7696 183f 940a 513f b57a 373f 89fc 003f
000000d0: 43d2 833e 7c38 4bbf e67b d83d c9e5 cbbd
000000e0: e018 89bd 4667 4a3e 3232 253e 6123 543d
000000f0: 52b8 b2be 6008 d8be ee91 fabc f292 d9be
00000100: 0396 b23e 5e76 073e 8a4f 90bd 4b7e e23e
00000110: 6214 b13e c337 a93e 758f 123f a591 113e
00000120: 1116 51be 90b1 023e a12d 8f3e 8d3b 543f
00000130: 0c3c 023f 7fd2 043f 5389 373e 2446 5e3f
00000140: ec21 f13e 785e 1d3f 0a48 1d3e c121 893c
00000150: 73b3 e03e e317 9dbd 5f7f 7cbf d145 203f
00000160: 3640 503f f383 dd3d 46d8 933e 28b7 3e3f
00000170: 70f9 193f fb9c 193f 2dba 01be cf98 a4bd
00000180: 79d6 2a3e 8def 473f 0018 6abe 273f 2d3c
00000190: 26cc f23e 3383 683e 5219 2cbe 52e8 e63d
000001a0: 2892 83be 81d2 54be e8ac 873e bfff 2a3f
000001b0: 4b6e b23f 80ad bfbe e6ba 653e 7ae7 2c3f
000001c0: b20f 17be 2442 3c3e e846 353d 4bca d33e
000001d0: 0110 3a3f f3e9 e23e 2690 973e 0f81 88be
000001e0: 788e c63e
-0.24960329 -0.36339587 -0.230061 -0.32483214 0.09595649 0.015133883 0.19554117 0.033585615
-0.41618508 -0.009004148 -0.18515258 0.49878842 0.69840586 0.49691844 0.15930562 0.67187315
-0.109545045 0.12764727 0.45953387 0.3080841 0.065129735 0.4602323 0.27327666 -0.2224851
0.05011304 0.25114852 0.20480467 -0.058199182 0.36770386 0.68505085 0.4121341 0.9245547
0.5173303 -0.07451118 -0.10600998 0.12412124 0.10956277 0.102834776 0.1651249 -0.23963106
-0.3983815 0.3200836 1.338673 -0.0023616466 0.29248047 0.7156529 0.64289963 0.053847983
0.59604585 0.81656766 0.7167161 0.5038534 0.25746354 -0.79383063 0.10570507 -0.099559374
-0.06694198 0.19765958 0.16132429 0.051791552 -0.3490625 -0.4219389 -0.030587163 -0.42494923
0.34880075 0.13228747 -0.07046421 0.4423698 0.34585863 0.33050355 0.5725015 0.14215715
-0.20418574 0.12763047 0.279645 0.8290337 0.50872874 0.5188369 0.17923479 0.86825776
0.47096193 0.6147227 0.15359512 0.016739728 0.4388691 -0.07670572 -0.9863185 0.6260653
0.8134798 0.10816183 0.2887594 0.74498224 0.60146236 0.6000516 -0.12668677 -0.080369584
0.16683377 0.780999 -0.22860718 0.010574139 0.47421378 0.22706299 -0.16806534 0.1127478
-0.25697446 -0.20783426 0.26499104 0.6679649 1.3939909 -0.37437057 0.22434577 0.67540705
-0.14752081 0.18384606 0.044257075 0.41365275 0.7268067 0.44319114 0.29602164 -0.26660964
0.3878057

sequential_1/dense_3/MatMul f4 [11, 11]
00000000: f219 ecbd 38ac 323e 538a 843e c8b1 43bf
00000010: 37e8 093f aeeb 1bbe af98 993d a2c6 333f
00000020: f223 093d edb1 91bf a632 273f c372 53bd
00000030: 8372 a5bb 8a09 3c3f 283f 8f3f ff34 75be
00000040: 5bd1 35be d8fc 053f 61c4 16bf af67 153f
00000050: 8726 7e3f 0365 4a3d 5307 543b 7e87 d0be
00000060: de72 c3be f617 a5be b8a3 8fbd 8a1a efbe
00000070: 7056 2abf f915 7c3e c004 3cbe 5207 3dbd
00000080: 1152 8cbe 2d3b 1c3e b7dd 0cbf 49e3 31bf
00000090: 1883 1cbe 3a43 9cbd 86ed df3e dc17 55bf
000000a0: b0bf 2b3e 8f10 363d cd3e a0bd 0927 28bf
000000b0: 9729 bcbe e09d 20bf 061a 40bf d40d 88be
000000c0: 2860 85be ad87 f0be 09f7 84bd 693b babc
000000d0: ad04 3abf ab41 aebe 7e80 a43d 9513 103e
000000e0: 6833 76be e74c 89be 02d4 f0be d8bf 66be
000000f0: 53ee 9b3e dba4 8ebe a5d9 3fbe f873 16bf
00000100: c134 23bf e1d2 4bbf 149f e7be f9cf 22bf
00000110: 9eb8 36bf 852a 10be b84d 603e 1ad3 c53e
00000120: eece dfbe 8062 ddbe 523a 28bf 7e96 93bd
00000130: ec58 d4bd 12b7 83bd 983b 41bf 8688 94be
00000140: fc50 00be ff4e b3be e586 bdbd cc71 823c
00000150: 0f90 243d f9a0 1ebf 91d8 30bf 1570 edbe
00000160: 5b38 06bf af0b a63d 4264 aebd 1034 46be
00000170: 4f9e b8be 2f20 b53e cde6 83be 94b8 91be
00000180: 57d3 82be fdd0 e4be a83d 54bf cd0b adbd
00000190: ea44 7abe 31ba 5bbe 563c 2fbf 7147 cebe
000001a0: bd00 69bc 8d64 9cbe 670d e2be 7035 57bc
000001b0: bf80 06bf db17 2b3e a824 f23d 4e8a b7be
000001c0: 0818 66be b3f2 b2be 2801 04bf c633 333e
000001d0: 6ec5 35bf fd72 43be 1bdd b7bd 9223 1a3e
000001e0: d9e2 8abe
-0.11528386 0.17448509 0.25886783 -0.7644315 0.53869957 -0.15226623 0.07499825 0.70224965
0.033481546 -1.1382424 0.6531166 -0.051623117 -0.0050490513 0.73452055 1.1191149 -0.23945998
-0.17755644 0.52338934 -0.588934 0.58361334 0.9927754 0.04941274 0.0032352998 -0.40728372
-0.38173574 -0.32244843 -0.07013649 -0.46699935 -0.66538143 0.24617757 -0.18361187 -0.04614956
-0.27406362 0.15256949 -0.5502581 -0.69487435 -0.15284383 -0.0763001 0.43735904 -0.8323953
0.16772342 0.044449385 -0.07824478 -0.6568456 -0.3675048 -0.627409 -0.7503971 -0.2657305
-0.26049924 -0.46978512 -0.06492431 -0.022733407 -0.72663385 -0.34034476 0.080323204 0.1406997
-0.24043047 -0.26816484 -0.4703675 -0.2253412 0.30455264 -0.2786015 -0.18735369 -0.58770704
-0.6375237 -0.7961865 -0.45238554 -0.6359859 -0.71375453 -0.1407872 0.21904647 0.3863762
-0.43712562 -0.43239212 -0.6571399 -0.072064385 -0.10368523 -0.06431402 -0.7548156 -0.2901041
-0.12530893 -0.35021207 -0.09254245 0.015923403 0.040176447 -0.61964375 -0.69080454 -0.46374574
-0.5242974 0.08107697 -0.085152164 -0.19355798 -0.3605828 0.35376117 -0.25762025 -0.28461134
-0.25551865 -0.44690695 -0.8290658 -0.084495164 -0.24440351 -0.21457745 -0.6845144 -0.4028888
-0.014221367 -0.30545464 -0.4415085 -0.013135299 -0.525402 0.16708319 0.11823398 -0.35847706
-0.22470105 -0.3495079 -0.51564264 0.17500219 -0.7100438 -0.19086833 -0.089777194 0.15052631
-0.27126196
